intelligent_snake.pth (torch, 3999 bytes, 4 tensors)

linear1.weight f4 [48, 8]
000000 d9 51 59 be 60 5f c7 3e 88 01 0c be cc 6a a3 3e
       -0.21222629 0.38939953 -0.13672459 0.31917417
000010 70 6a 31 3e 77 ce 46 3f 4d 29 02 3f 01 79 81 be
       0.17325759 0.7765879 0.5084427 -0.2528763
000020 34 04 3f 3f 87 e8 c9 3e 59 10 e5 3d 99 d0 29 3e
       0.7461579 0.39435217 0.11184759 0.1658348
000030 da 7d ea 3c ef 0b 8a 3e 25 5c f7 3e 29 3a b5 3e
       0.028624464 0.2696223 0.48312488 0.35395935
000040 16 32 89 be 11 0f 33 3d c1 dd 24 be 29 34 da 3b
       -0.26796025 0.04371554 -0.16100217 0.00665905
000050 c0 27 fd bd 46 25 35 3e 4e 99 3e be ce b7 37 be
       -0.12361097 0.1769 -0.18613169 -0.1794121
000060 7d 98 e8 3e 76 ac 1d bf a4 62 5b be 1a cc 09 bf
       0.4542884 -0.6159128 -0.21424347 -0.5382706
000070 14 fd 2c 3f 81 16 d6 be 29 c1 0f bf 9d 97 0a 3f
       0.67573667 -0.41814044 -0.56154114 0.54137594
000080 d6 a8 bb 3e 60 57 52 3f ad e4 28 be aa 67 e8 be
       0.3665225 0.82164574 -0.16493483 -0.4539159
000090 3b 1a b5 3e 1c 76 fe 3e b1 31 f1 3c 24 0a 71 3c
       0.35371575 0.49699485 0.02944264 0.01471189
0000a0 90 2e 05 3f ad 79 7e be d7 30 d1 bd 8e 56 22 3f
       0.52024174 -0.24851103 -0.102143936 0.6341332
0000b0 d7 63 23 3f 6d d0 3b 3f 94 aa a4 bd a7 71 72 be
       0.6382422 0.7336491 -0.08040348 -0.23676167
0000c0 f5 fe 3a be d0 0b 95 3e 38 ba 37 3f aa 1e 88 3d
       -0.18261321 0.29110575 0.7176852 0.06646474
0000d0 34 81 c8 3e 4e df f8 3d bf 25 11 3f d7 19 39 3f
       0.39161074 0.12151967 0.5669822 0.72305053
0000e0 df c4 28 be 0c 60 f3 be 55 0f 1a 3f fb 28 33 3e
       -0.1648135 -0.47534215 0.60179645 0.17496102
0000f0 c0 7c 8e 3e f9 10 95 bc 66 97 58 bc 77 32 1d 3e
       0.27829552 -0.01819657 -0.01321969 0.15351282
000100 35 41 35 3f 27 50 86 3d 9a 9b 65 3f 5d d9 27 3e
       0.70802623 0.065582566 0.89690554 0.16391511
000110 7d 4e 49 3f 4b 6a 12 be b3 26 80 bc 7d be 1e 3f
       0.7863539 -0.1429836 -0.015643453 0.6200941
000120 85 a3 b2 be 10 97 85 3e 32 62 94 be 55 35 29 bf
       -0.3489038 0.26091814 -0.28981167 -0.66097003
000130 1d e5 f9 be 53 08 14 3e 87 c5 22 3f 3a 57 a4 3d
       -0.48807612 0.144563 0.6358265 0.0802445
000140 dd ad 98 3e e2 0c 68 3f a4 a0 b3 3c 13 b2 f5 be
       0.29820147 0.9064466 0.021927185 -0.47987422
000150 21 67 36 be 9a 61 2e 3e 50 a8 15 3f 77 7f 45 3c
       -0.17812778 0.1702942 0.5845995 0.012054316
000160 c7 35 84 be 93 90 91 be 9c 8a 81 3f 35 1f 58 be
       -0.2582228 -0.28430614 1.0120425 -0.21105655
000170 18 54 93 3d 5c f1 21 bd 1d 8e a1 3d 82 a3 69 3e
       0.07193774 -0.03953682 0.07888434 0.2281628
000180 99 f3 08 3c b4 c5 a0 be 26 1d 7c be e2 2a 28 be
       0.008358859 -0.31400836 -0.24620494 -0.16422608
000190 b2 12 38 be d5 0a 5c be 8c 8f ee 3d 14 55 7f 3d
       -0.17975882 -0.21488507 0.11648473 0.062336996
0001a0 63 14 3d 3f 5c 61 4a 3f 93 21 d5 bd e3 76 f1 bd
       0.7385923 0.7905481 -0.104067944 -0.11790254
0001b0 1c 98 a0 3e 50 cc 14 3f ab 6c 65 be 39 b7 51 bd
       0.3136605 0.58124256 -0.22404735 -0.051200125
0001c0 d6 91 1d 3e 62 32 d4 bd 31 d3 0e 3f 1f 6a 4a 3f
       0.15387663 -0.10361172 0.55791 0.7906818
0001d0 89 85 57 bb 3a d3 ed 3e 69 aa 95 3e 89 83 01 3f
       -0.003288599 0.46450216 0.29231575 0.5059133
0001e0 8c a8 74 3f 83 5a dd 3e ef 9b 8e 3e ed 67 6c 3e
       0.9556968 0.43233117 0.27853343 0.2308652
0001f0 ba 91 30 3f 30 d1 ba 3e 49 7d 2d 3e 23 86 9d 3e
       0.6897236 0.36487722 0.16942324 0.307664
000200 26 2d 0a bd 67 4d 0b 3e 69 6c 4b 3f 19 95 bc 3e
       -0.033734463 0.13603745 0.79462296 0.36832502
000210 2c 08 53 3e 5b 4b 50 be 1e 8f 06 3f 84 ea c1 3e
       0.20608586 -0.20341246 0.5256213 0.37874234
000220 9a e5 98 be 0f 8c 0e bf 00 15 d8 3e bb 0d 14 3f
       -0.29862672 -0.5568246 0.42203522 0.5783345
000230 f2 7b 09 bd 3b b6 b8 3e 27 30 18 be f0 54 0b bf
       -0.03356547 0.3607653 -0.14862119 -0.5442648
000240 98 ea 15 3c 3f cb 09 3f ef 39 fd be 8a db b2 3e
       0.00915017 0.53825754 -0.49458262 0.3493312
000250 8c d6 b3 bd 58 b0 c5 3d 11 e7 e4 3e f6 d5 0f 3b
       -0.08781156 0.096527755 0.4470754 0.00219476
000260 32 d6 7e 3e c8 50 aa 3e b7 1c 8f 3e 73 7d ba 3e
       0.24886397 0.33264756 0.27951595 0.36423835
000270 96 5d 1f 3e b7 aa 3b 3f 57 70 cb 3d 20 ed 0f 3e
       0.15563044 0.73307365 0.099335365 0.140553
000280 72 af a8 bd f4 86 46 be 2f a7 4c 3f 4e 68 79 3f
       -0.082365885 -0.19387418 0.799426 0.9742478
000290 ce e7 c9 3d 61 72 ae bb 10 59 fc 3d db b2 1b 3e
       0.09858666 -0.0053236936 0.12321675 0.15204947
0002a0 89 56 71 3f ae f9 ab 3e 1a 63 0c bf 10 c3 b2 be
       0.9427267 0.33588928 -0.54838717 -0.34914446
0002b0 80 26 c3 3d 01 8f ac 3d 12 de d4 3e d9 48 f7 3e
       0.09528828 0.08425713 0.41575676 0.48297766
0002c0 ed 8c a4 3d 6d 89 00 be 81 80 d8 3e f4 70 1d bd
       0.08034692 -0.12552424 0.4228554 -0.0384378
0002d0 bc c0 ca bd b5 6c 39 be 42 0e ef be 36 f7 f0 be
       -0.099000424 -0.18107875 -0.46690565 -0.47063607
0002e0 ff a1 90 3d c2 70 22 3f 10 bc d2 3d 29 f9 29 3e
       0.07062148 0.63453305 0.10289776 0.16598953
0002f0 59 0a c8 3d 73 31 2a 3f 16 2d 34 3f a1 33 9c 3d
       0.09767599 0.66481704 0.70381296 0.07627035
000300 a0 9e d0 3e d0 ed 56 3f 6f 91 84 3e cb cf b0 3e
       0.4074602 0.83956623 0.25892207 0.34533533
000310 38 c1 78 3c 0b 03 02 3e c3 0d 2a 3f 16 a7 7a 3e
       0.015182786 0.12696473 0.6642725 0.244778
000320 fa c1 88 be 41 d9 47 bf 9f 35 3e be e2 44 42 3f
       -0.26710492 -0.7806588 -0.18575142 0.75886357
000330 8d 70 dc bd 68 af ae 3e 90 89 47 be 73 0a bc be
       -0.10763655 0.341182 -0.1948607 -0.36726722
000340 57 e6 23 3d 19 55 a3 3e 61 cf 89 3e 90 34 21 3f
       0.04001459 0.31900862 0.2691603 0.6297083
000350 8a 61 2c 3e 9e 95 2b 3f e8 b5 72 3e c8 4c 4a bd
       0.16834083 0.6702517 0.23702204 -0.04938963
000360 2a f8 a3 3d db 89 d2 3e aa 95 c1 3e 25 b2 08 3f
       0.08006318 0.411208 0.37809497 0.53396827
000370 29 87 1e 3f d9 98 e4 3e 7e 8b 8e 3e 2a 8e 92 3e
       0.6192499 0.44647864 0.278408 0.28624088
000380 a0 a2 ea 3e c2 bd a3 3e 19 77 a7 3c 39 c6 14 3f
       0.45827198 0.3198071 0.020442532 0.58114964
000390 8a 05 a2 3e c1 c3 4a 3f 3d 26 e3 3e 86 84 45 3e
       0.3164485 0.79204947 0.4436511 0.19288835
0003a0 37 26 d4 be 59 2f 19 3f b3 d7 7b be 52 e1 ef bd
       -0.41435406 0.5983787 -0.24594001 -0.11712898
0003b0 ea 26 14 bf 45 08 ad 3d 15 9c bc 3e 76 62 31 be
       -0.5787188 0.08448843 0.3683783 -0.17322716
0003c0 c0 15 9a be 05 6a 17 3e 5c 1d 3b 3f dd 1e 72 3e
       -0.3009472 0.14786537 0.73091674 0.23644586
0003d0 94 a6 0e be 8d 27 0e bd b7 1f e8 3e 9a 2c b5 3e
       -0.13930732 -0.034705687 0.45336697 0.3538559
0003e0 93 e5 b2 bd 2f ce 57 be 65 d0 4f 3f cc d8 aa 3e
       -0.08735194 -0.21074747 0.8117736 0.33368528
0003f0 f6 d6 0f 3f f9 db bd bd 83 66 d8 bb 22 f6 0c 3f
       0.5618738 -0.09270472 -0.006604017 0.5506307

linear1.bias f4 [48]
000000 fb bb bc 3e 99 bb f4 be e9 15 83 be 46 5b 48 3f
       0.36862168 -0.47799376 -0.25602654 0.7826427
000010 37 1a 0d 3e ac ca a4 3e 56 9c 71 be f0 b0 b8 bd
       0.13779531 0.32185876 -0.23594794 -0.09018123
000020 8c d3 5a bd 8f c3 b2 3e 1b 38 39 bd da 59 43 3e
       -0.053424403 0.34914824 -0.045219522 0.19077244
000030 78 64 41 be f8 2d 17 3e 52 03 41 be b2 d0 19 bf
       -0.18885982 0.1476363 -0.18848923 -0.6008407
000040 23 f9 31 be 3f 9f a4 3e d4 f1 86 3c d5 78 dd be
       -0.17380194 0.32152745 0.016472735 -0.4325625
000050 23 b4 5e 3d fe 76 85 3e 19 79 88 bd a0 55 54 be
       0.05437101 0.26067346 -0.066637225 -0.20735788
000060 56 16 f4 be 2d ed 9e 3e 6d 85 85 be 7a 8e 33 bf
       -0.4767329 0.31040326 -0.26078358 -0.70139277
000070 73 94 88 be e9 27 f6 3d 3a 8b e6 3e f8 90 69 3e
       -0.26675758 0.12019331 0.45028096 0.22809207
000080 53 42 0c be 93 5c d3 be ac a0 ca 3d d8 45 d6 3e
       -0.13697176 -0.41281566 0.09893927 0.41850162
000090 3e b1 58 be 6d 4b b0 be 8a 15 29 be 6c e5 96 be
       -0.21161363 -0.34432545 -0.16512123 -0.2947191
0000a0 02 4f 26 3f c5 22 99 bd 61 e0 4d 3e bb 72 3e 3e
       0.64964306 -0.07477335 0.20105125 0.18598454
0000b0 8e b0 95 3d 1c 4a ae 3d 9d d5 d1 be d9 a0 3b be
       0.07309066 0.08510229 -0.40983286 -0.18323077

linear2.weight f4 [4, 48]
000000 a8 1a b5 3e 8e c7 2d bf 46 3e 27 3e 47 31 6c bc
       0.353719 -0.6788262 0.16332349 -0.0144160455
000010 fd 96 c9 bd 08 48 9a 3e 2f 54 b9 be 33 82 68 3d
       -0.09843252 0.3013308 -0.3619704 0.056764793
000020 aa 22 03 bf ec 3f 9d bc 84 3c a3 be 84 0a 21 be
       -0.5122477 -0.01919552 -0.31882107 -0.15726668
000030 8c 4f c0 bb b2 3c 83 bd 61 47 0f 3d f5 20 f1 be
       -0.0058688577 -0.06408061 0.03498018 -0.47095457
000040 9a fb 4f be 33 23 3a 3f 68 37 1d 3d 2d 6b 9c 3c
       -0.20310822 0.7270996 0.038382918 0.019094074
000050 fa cb 50 3e f3 74 29 bf 13 49 fd 3e f6 2f 35 bd
       0.20390311 -0.66194075 0.49469814 -0.044235192
000060 3b a4 d5 be 8c 8f 2e 3f df d4 ad 3d 30 55 3f be
       -0.4172686 0.68187785 0.084878676 -0.1868484
000070 29 49 b2 3b 2c f2 88 3d 3f 29 64 3d 12 b4 ba bd
       0.0054408503 0.066868156 0.055703398 -0.09116377
000080 29 b7 5e 3e b0 ff 38 bf 3a 9f 13 bf 72 57 02 3f
       0.21749558 -0.7226515 -0.57664835 0.5091468
000090 0b 5d df bd a0 fe 23 3d 18 84 ba 3d 3d 6a d0 3e
       -0.109064184 0.04003775 0.09107226 0.40706053
0000a0 6a 52 d1 3e 75 b0 37 bf ea 85 f2 be 3f 1b be 3e
       0.4088319 -0.7175363 -0.47367793 0.37130162
0000b0 c4 e4 26 3e 66 b4 b7 be 4b 1a b9 be c0 da 61 3b
       0.16298205 -0.3587982 -0.36152872 0.003446266
0000c0 85 71 6b 3e 06 b9 aa bd 09 c1 de bd 2e 77 c4 3b
       0.22992523 -0.08336072 -0.10876662 0.0059956526
0000d0 0f 43 7d 3e d9 54 e5 be 32 e8 1e be e9 62 2e 3e
       0.24732612 -0.44791296 -0.15518263 0.17029919
0000e0 8e 2c 03 bf c1 a4 28 3f 28 de 03 3f 71 a3 c5 be
       -0.5123986 0.65876395 0.5151086 -0.38601258
0000f0 85 96 c5 3c 04 4e d7 3d 1f d5 89 be 3b 60 00 bf
       0.024119625 0.10512927 -0.2692041 -0.50146836
000100 08 1e 16 be 04 3f 06 3e 28 90 74 3e 67 59 79 be
       -0.14659894 0.13109976 0.23883116 -0.2435051
000110 ef 23 24 bf da c1 b2 3e 14 90 dd 3d 76 23 23 3d
       -0.6411733 0.34913522 0.10818496 0.03982874
000120 9c 4f ed 3c bf fa a6 3d fd 8f 2e be 26 ab 06 bf
       0.028968625 0.08153295 -0.17047115 -0.526049
000130 57 b7 26 be cf c3 05 3f ee 27 00 3e 83 5a fe be
       -0.16280876 0.52251905 0.12515232 -0.4967843
000140 e4 2b 94 3e d4 77 e3 be ac 4f 3e 3e 36 e0 12 bf
       0.28939736 -0.4442736 0.1858508 -0.5737337
000150 99 7b 81 3e 10 ba c3 bd 63 96 29 3e 00 73 bb be
       0.2528961 -0.09556973 0.16561274 -0.36611176
000160 9d ef fd 3e ba 30 86 3e 60 b8 18 3e ea a6 0c be
       0.49596873 0.2620905 0.14914083 -0.13735548
000170 38 ec 85 3d c7 85 25 3b cc 67 1a be fe 21 d8 bd
       0.06539196 0.002525674 -0.15078658 -0.105533585
000180 80 b7 01 bf c6 78 af be 6e 9a 29 3e 50 f1 0f 3f
       -0.50670624 -0.3427183 0.16562817 0.5622759
000190 ba 7e 0d bf 8a 17 d4 be 9c 4f 02 3e 9c 9c a4 3e
       -0.55271494 -0.4142421 0.12725681 0.32150733
0001a0 4e 92 3e 3e a5 25 1d 3d 1c 96 e7 be 1e 0e 07 3f
       0.18610498 0.03836598 -0.45231712 0.52755916
0001b0 51 b4 9b 3d 35 d2 33 bf 4d ea e8 3d 60 3a 07 bf
       0.07602752 -0.70242625 0.11372814 -0.5282345
0001c0 1f c8 5a 3e 1d ae a3 3e d1 eb f1 bc 92 7b 0f bf
       0.21365403 0.31968775 -0.029531391 -0.5604793
0001d0 02 3a 49 3e 1b cd 62 be e2 82 ae 3e 97 fa c4 be
       0.19651034 -0.22148554 0.3408423 -0.38472435
0001e0 ef 80 8d be e6 54 86 bd e1 92 94 be e3 97 c8 be
       -0.2763743 -0.06559162 -0.2901831 -0.3917838
0001f0 0f d5 2a bf 0d 96 75 3e 1b 10 c1 3e 14 08 c3 3e
       -0.6673135 0.23983021 0.377076 0.380921
000200 ea 08 c9 bd 83 24 2d 3d a1 94 22 3e e7 b3 ea 3e
       -0.09816153 0.04227115 0.1587701 0.4584038
000210 87 21 21 be fe ac c3 bd 17 f5 01 bd 7e 38 21 bf
       -0.15735446 -0.0955448 -0.031727877 -0.62976825
000220 39 9c ab 3e bc 8f 01 be bc 35 86 3e d6 51 98 be
       0.33517626 -0.12652487 0.2621287 -0.29749936
000230 4b 7f 35 bd a4 a7 16 bf 29 e3 b7 be d8 42 bf 3d
       -0.04431085 -0.5884955 -0.35915497 0.09338921
000240 d3 e5 1d bc 9b e5 db bd 0b 55 9b bb 84 dc 4f 3f
       -0.009637314 -0.10737153 -0.0047403625 0.81195855
000250 f4 81 bc 3e dd d4 78 3e df 84 cd be 77 a4 0e be
       0.36817896 0.24299951 -0.40140435 -0.13929926
000260 ab 2f d4 3d a1 09 7f bc 23 eb ff bc 62 c6 df be
       0.103606544 -0.015566261 -0.031240052 -0.43706042
000270 1d 7b ca 3c 96 b9 c6 3e 4c 8d 06 bf d7 e1 7d 3d
       0.024716908 0.38813466 -0.5255935 0.061982956
000280 42 66 02 bf 50 0c 4c be d2 54 ad be d5 00 ab be
       -0.50937283 -0.19926572 -0.33853775 -0.33399072
000290 40 6e a9 be 95 1b d2 3e 73 4f 18 be 71 0f 91 be
       -0.33091927 0.41036668 -0.14874057 -0.28332093
0002a0 44 03 19 bf 09 16 96 be 12 e6 b1 be b7 aa 77 be
       -0.5977061 -0.29313686 -0.34745842 -0.24186216
0002b0 29 fd c3 bd 35 fa c9 3e c5 01 cc be a6 b4 64 bc
       -0.09569771 0.39448705 -0.398451 -0.013959086
0002c0 ab ec b1 bd 22 7d fa b6 38 69 ba be e1 84 3e bd
       -0.08687719 -7.465148e-06 -0.364084 -0.046513442
0002d0 0a f0 b0 3d a8 da e3 3c a1 73 9e 3d b3 c7 c1 be
       0.08639534 0.027814224 0.07736898 -0.3784767
0002e0 6d b4 d9 3c 98 c4 8f 3d 76 ee 45 bd ca 4b 03 bf
       0.026575292 0.07019919 -0.048323117 -0.5128752
0002f0 2e 20 61 3e a1 56 05 3f 04 2f e5 bd 26 ed f1 bd
       0.21984932 0.5208531 -0.11190608 -0.118128106

linear2.bias f4 [4]
000000 c1 50 17 3e a7 a5 9e 3e 7f aa 8b 3e 2a 82 ce 3e
       0.14776899 0.30985758 0.27278516 0.40333682
